data.pth (torch, 6487 bytes, 6 tensors)

l1.weight f4 [8, 74]
0.41365385 0.36442438 0.46905008 0.8116983 1.0773844 1.1525078 0.7163711 -0.48931924
0.10025536 -0.4432419 -0.75999933 0.04622242 -1.200701 -0.37525564 1.1012789 0.45327574
0.6238401 -0.80803347 0.67150164 0.45464283 0.85882086 0.5461428 -0.43614456 0.90083987
0.9379528 0.28381482 0.8099672 0.81163025 0.2537963 -0.29525983 -0.36719456 1.2630197
0.5222137 -0.33436948 0.16552538 -0.7367944 -0.5798777 -0.88450074 0.18418989 0.7662342
0.3902723 -0.076033525 -0.85936177 0.49753186 0.80046284 -0.44519076 -0.77016395 0.8246853
0.40921706 0.6090034 -0.48802456 0.5476787 0.3545708 0.8824843 0.92262524 -0.7968223
0.41150874 1.144313 0.56394136 0.79579747 -0.4136795 0.2247441 0.89790326 0.26899377
0.6961342 0.96700186 -0.28686303 0.77461725 1.2311435 0.115746215 0.8274895 -0.3940433
0.16574173 0.094195254 -0.31263274 0.5281855 0.49189386 0.67903054 -0.4364063 -0.0733148
-0.48182702 0.46229225 -0.42958406 0.44885916 1.3101141 0.28903848 -1.1738472 0.52618724
0.93760186 -0.24320786 0.4059501 1.0224898 -0.37108982 -0.08590463 0.85669416 0.41452286
0.50958747 0.48282164 0.53123957 0.7180808 0.4850911 0.4210528 -0.3787358 0.5329863
0.4330537 -0.42708346 -0.24759479 -0.5512072 0.14797048 -0.091675736 1.1669257 0.083915465
0.23754385 0.34585416 0.6173128 1.2069547 1.1550457 0.21217379 0.37457305 0.39414254
0.2625761 -0.7611432 0.057844367 -0.7234065 0.38165745 -1.0441219 -0.40161315 -0.05778599
-0.5160307 -1.2030944 0.18539529 -0.22936338 -0.69818354 -1.3962331 0.010983075 0.36237916
-0.4736152 -0.13875058 -0.15756936 1.012582 0.16346651 -0.4408893 0.252664 0.19469696
0.16721445 0.057255358 0.26722658 0.73067164 -0.6861794 0.2211524 -0.4450177 -0.69964015
-0.61519754 -0.25322554 -0.3546159 0.7019062 -0.049102504 0.8742564 0.8525227 0.40819058
0.56557757 0.083074994 -0.82418144 -0.6583012 0.4992562 0.89536405 -0.23121792 0.15363064
-0.297133 0.46868393 0.76871127 0.43070555 0.5784554 0.17419598 0.6209287 0.6429638
-0.012790074 0.39127308 0.4803376 -0.8609561 -0.98865956 -0.09182061 0.22870038 0.53149205
0.344351 0.4754558 0.06458537 0.6456695 0.22993946 1.4503833 1.0506737 0.39022192
0.65366566 0.9773151 0.19817641 -0.69247293 0.29217038 -0.38664156 -0.79843986 -1.0228564
-0.53932166 0.16310441 -1.0653038 0.8186452 0.09216908 -0.17611746 -0.44803 1.9329951
0.70502967 0.0073852045 -0.7675307 -0.08501843 -0.34503785 -0.35352287 0.30878714 -0.25174016
0.9124022 0.04118063 -0.27125767 -0.27914473 0.46671376 0.49308947 -0.3220386 0.43493706
-0.000974849 -0.15320612 -1.0959805 -0.26461452 -0.36948234 0.49904695 0.4099642 0.5190058
0.79069805 0.72530174 -1.3076959 -0.2771896 -0.648717 -0.45618027 0.79366744 0.7966658
-0.33478695 0.3919665 0.31754297 -0.30476853 0.4758438 0.67573357 0.7966685 0.16717526
-0.54769206 -0.46260998 0.42442524 0.27189976 -0.038336024 0.7752291 -0.8171935 -0.49088
00000000: 70ca d33e d595 ba3e 5527 f03e 76cb 4f3f
00000010: bbe7 893f 6085 933f 1964 373f 0d88 fabe
00000020: af52 cd3d 9af0 e2be 518f 42bf b853 3d3d
00000030: 92b0 99bf 8221 c0be b5f6 8c3f c213 e83e
00000040: fcb3 1f3f 48db 4ebf 88e7 2b3f f2c6 e83e
00000050: afdb 5b3f 04d0 0b3f 574e dfbe 719d 663f
00000060: ad1d 703f 2d50 913e 035a 4f3f 00c7 4f3f
00000070: 97f1 813e 4c2c 97be ed00 bcbe a1aa a13f
00000080: ccaf 053f 7a32 abbe 7c7f 293e 8f9e 3cbf
00000090: dd72 14bf a46e 62bf 469c 3c3e ed27 443f
000000a0: c5d1 c73e 77b7 9bbd 22ff 5bbf 7fbc fe3e
000000b0: 22eb 4c3f 0bf0 e3be 7729 45bf 931e 533f
000000c0: e684 d13e a6e7 1b3f 5bde f9be ac34 0c3f
000000d0: 4e8a b53e 7eea 613f 2b31 6c3f 8cfc 4bbf
000000e0: 46b1 d23e d978 923f 765e 103f 62b9 4b3f
000000f0: cdcd d3be 5123 663e fddc 653f 8db9 893e
00000100: da35 323f 6f8d 773f b6df 92be 514d 463f
00000110: 1c96 9d3f 5a0c ed3d 5ad6 533f 0bc0 c9be
00000120: 33b8 293e 71e9 c03d 6611 a0be 2a37 073f
00000130: 83d9 fb3e f2d4 2d3f a670 dfbe 1226 96bd
00000140: 08b2 f6be 92b1 ec3e 71f2 dbbe ded0 e53e
00000150: d2b1 a73f dafc 933e a040 96bf 35b4 063f
00000160: ad06 703f 7b0b 79be b1d8 cf3e f2e0 823f
00000170: 7cff bdbe c4ee afbd 4f50 5b3f 573c d43e
00000180: 5374 023f 6634 f73e 51ff 073f 25d4 373f
00000190: dc5d f83e 3c94 d73e a9e9 c1be ca71 083f
000001a0: 37b9 dd3e afaa dabe 7d89 7dbe ea1b 0dbf
000001b0: 9385 173e 7dc0 bbbd d25d 953f dfdb ab3d
000001c0: b23e 733e cc13 b13e 3608 1e3f 7e7d 9a3f
000001d0: 8ad8 933f 1644 593e 0ac8 bf3e 0dcd c93e
000001e0: 6070 863e 48da 42bf 37ee 6c3d 2b31 39bf
000001f0: 9b68 c33e c9a5 85bf 3da0 cdbe 01b1 6cbd
00000200: 971a 04bf fffe 99bf 43d8 3d3e 3cde 6abe
00000210: 28bc 32bf c4b7 b2bf 5bf2 333c c389 b93e
00000220: b17d f2be a214 0ebe dd59 21be 499c 813f
00000230: c463 273e 3ebc e1be 2d5d 813e a45e 473e
00000240: 443a 2b3e 9884 6a3d ecd1 883e 4c0d 3b3f
00000250: 74a9 2fbf c675 623e 5cd9 e3be 9e1b 33bf
00000260: 967d 1dbf c7a6 81be 3790 b5be 20b0 333f
00000270: b51f 49bd 44cf 5f3f ed3e 5a3f 5bfe d03e
00000280: b1c9 103f 3923 aa3d 8efd 52bf 6d86 28bf
00000290: 829e ff3e 9436 653f 64c4 6cbe 5a51 1d3e
000002a0: d121 98be 57f7 ef3e 43ca 443f 7085 dc3e
000002b0: a715 143f 6e60 323e 2ff5 1e3f 4799 243f
000002c0: 758d 51bc f254 c83e cfee f53e 9e67 5cbf
000002d0: cb18 7dbf 720c bcbd 6f30 6a3e dd0f 083f
000002e0: c64e b03e f16e f33e 5645 843d 994a 253f
000002f0: 4075 6b3e 29a6 b93f 7a7c 863f 2bcb c73e
00000300: a256 273f 5331 7a3f c2ee 4a3e e845 31bf
00000310: 5b97 953e e2f5 c5be 8e66 4cbf f5ec 82bf
00000320: fc10 0abf d804 273e e05b 88bf bb92 513f
00000330: 25c3 bc3d 2358 34be 3064 e5be 626c f73f
00000340: d37c 343f 96ff f13b e47c 44bf 251e aebd
00000350: cda8 b0be f300 b5be 5919 9e3e 16e4 80be
00000360: 3193 693f 05ad 283d 49e2 8abe 0fec 8ebe
00000370: 1bf5 ee3e 3976 fc3e 3ee2 a4be 12b0 de3e
00000380: 028d 7fba 11e2 1cbe 1749 8cbf 8e7b 87be
00000390: ca2c bdbe 1583 ff3e d4e6 d13e 90dd 043f
000003a0: 306b 4a3f 60ad 393f 9462 a7bf cceb 8dbe
000003b0: 5112 26bf 7690 e9be ca2d 4b3f 4af2 4b3f
000003c0: 3269 abbe d5af c83e fe94 a23e 9f0a 9cbe
000003d0: cca1 f33e e0fc 2c3f 78f2 4b3f fe2f 2b3e
000003e0: 8c35 0cbf 37db ecbe 444e d93e 7236 8b3e
000003f0: 3c06 1dbd 6a75 463f 9833 51bf a054 fbbe

l1.bias f4 [8]
0.5089878 0.20259926 0.54594964 0.5490692 0.28247696 0.44622788 0.71730244 0.58745384
00000000: 064d 023f 2e76 4f3e 5bc3 0b3f cd8f 0c3f
00000010: d2a0 903e fb77 e43e 22a1 373f 6063 163f

l2.weight f4 [8, 8]
0.496962 -0.8645086 0.52627426 -0.39519447 -0.058338072 -0.10634868 0.1661932 0.36347896
1.9174109 0.21332437 0.17536509 0.46267617 -0.42472798 -0.8383424 -0.19779949 -0.01932571
0.025070867 0.54278994 0.8159559 1.0262487 2.2784023 0.15845756 -0.75558126 1.3458596
1.344879 -1.3259481 -0.7805839 0.43623456 -0.5104319 0.7741198 0.65709764 0.5577215
-0.73028636 -0.08472117 1.7740215 1.2902783 -0.9013699 -0.9341502 0.3083326 1.4966921
-0.14075215 2.3625739 0.80859035 1.2529914 -0.5681073 0.59749436 1.0301696 -1.3454231
1.1384149 0.30251166 0.4267899 1.0397695 2.1951745 0.85562515 -1.2764415 -0.33665687
0.5297936 -0.68655825 0.36418045 -0.21641135 -0.9796436 1.5085495 1.668844 0.20334914
00000000: ce71 fe3e 7050 5dbf e9b9 063f ee56 cabe
00000010: e7f3 6ebd 56cd d9bd 8d2e 2a3e ea19 ba3e
00000020: b86d f53f b471 5a3e e892 333e e4e3 ec3e
00000030: f275 d9be 9c9d 56bf f38b 4abe f450 9ebc
00000040: 6b61 cd3c 48f4 0a3f 7ce2 503f 1e5c 833f
00000050: 58d1 1140 b342 223e c66d 41bf 2145 ac3f
00000060: ff24 ac3f abb8 a9bf 59d4 47bf 235a df3e
00000070: aaab 02bf b72c 463f 8d37 283f d6c6 0e3f
00000080: 0cf4 3abf 4b82 adbd 2313 e33f d727 a53f
00000090: 2ec0 66bf 7824 6fbf c5dd 9d3e 9b93 bf3f
000000a0: 5521 10be 6934 1740 c7ff 4e3f 0662 a03f
000000b0: 7b6f 11bf 64f5 183f 99dc 833f d336 acbf
000000c0: 94b7 913f cfe2 9a3e 3584 da3e 2b17 853f
000000d0: bd7d 0c40 400a 5b3f 6f62 a3bf 4a5e acbe
000000e0: 8ea0 073f 48c2 2fbf dc75 ba3e f09a 5dbe
000000f0: ecc9 7abf 2618 c13f ae9c d53f c23a 503e

l2.bias f4 [8]
0.027084216 1.1722493 -0.31303203 -0.00878931 0.9527422 0.23731449 -0.40803048 0.9327916
00000000: b8df dd3c 440c 963f bc45 a0be 0a01 10bc
00000010: eae6 733f 9202 733e 5fe9 d0be 6ecb 6e3f

l3.weight f4 [16, 8]
-2.963072 0.84123325 0.055466857 -1.8440046 -0.21152952 0.17553826 0.36517608 -1.991061
-4.1577845 -1.0683562 0.26482004 -0.32629588 0.59010565 0.4018484 -0.778134 -0.33359435
-0.06545563 -0.3197356 -1.3648916 0.7894329 -0.06365068 0.0053268047 -1.1807021 0.3478788
-1.3634752 0.3719695 0.33158037 -2.4170296 1.4445335 -0.5211815 -2.3092403 -0.29258955
1.9413155 1.5365281 -2.5204868 -1.1288557 0.20387675 0.08996788 -2.308673 0.23754004
-2.4366372 -1.9196789 -1.5962762 0.22084497 -2.7291572 0.8407086 -0.89422417 0.8766089
-1.6733892 -0.97779906 0.82802427 -1.4883388 0.63882095 -1.3058952 -0.040909022 -1.7104933
-2.7575662 -0.9310292 0.4035772 -1.4501752 -0.86433107 0.28256467 0.6481782 -0.6092955
-2.605901 -2.5884314 -0.42358434 -1.3432287 -1.0609003 0.8644241 -0.008090915 0.2987826
-1.4285681 0.390059 0.25797254 0.09737561 -0.34786627 -2.0062308 0.48481405 -1.4183755
1.6027523 -0.877983 -0.24801596 -0.045277845 0.622612 -1.4795957 -1.9921547 0.6397958
0.16962302 0.14359894 -0.1840593 0.72066903 -1.1681516 -1.9528878 0.038722895 0.28259927
1.2664253 -0.15729502 -0.042024165 -0.5946778 0.83779514 -1.2274559 -0.0393999 -0.6789679
-2.649489 -0.5703811 0.53164965 0.14069933 -2.7111485 -0.83394676 0.72226584 -0.04090125
-3.7795868 0.5829191 -0.51853305 0.35622954 -3.0210595 0.5632222 -0.07430477 -0.09382849
-0.6128132 0.06560488 -0.26869997 0.32097393 -0.39133394 -0.24249019 0.013702309 0.082367525
00000000: f9a2 3dc0 105b 573f 3731 633d 5808 ecbf
00000010: 329b 58be 4dc0 333e 5cf8 ba3e 16db febf
00000020: 920c 85c0 e5bf 88bf 7e96 873e 4110 a7be
00000030: 2a11 173f 13bf cd3e ca33 47bf e1cc aabe
00000040: 9a0d 86bd 62b4 a3be c5b4 aebf 4618 4a3f
00000050: 4a5b 82bd 7a8c ae3b 3f21 97bf 2c1d b23e
00000060: 5b86 aebf c972 be3e e7c4 a93e 9db0 1ac0
00000070: 79e6 b83f 276c 05bf 98ca 13c0 4cce 95be
00000080: 077d f83f f4ac c43f a84f 21c0 587e 90bf
00000090: 11c5 503e 1441 b83d 4cc1 13c0 b23d 733e
000000a0: ddf1 1bc0 0ab8 f5bf c752 ccbf 2f25 623e
000000b0: 83aa 2ec0 ae38 573f e0eb 64bf 7169 603f
000000c0: 9e31 d6bf 0a51 7abf 66f9 533f e381 bebf
000000d0: c589 233f 9327 a7bf 3890 27bd 72f1 dabf
000000e0: f77b 30c0 ee57 6ebf aca1 ce3e 579f b9bf
000000f0: cd44 5dbf 51ac 903e 02ef 253f cafa 1bbf
00000100: 15c7 26c0 dca8 25c0 0ce0 d8be ebee abbf
00000110: 95cb 87bf e64a 5d3f c28f 04bc 08fa 983e
00000120: 52db b6bf d0b5 c73e fa14 843e dd6c c73d
00000130: 871b b2be 1666 00c0 8c39 f83e 548d b5bf
00000140: fd26 cd3f 7ec3 60bf e5f7 7dbe 4375 39bd
00000150: 8063 1f3f 6463 bdbf edfe febf a8c9 233f
00000160: a8b1 2d3e 9a0b 133e 0b7a 3cbe c47d 383f
00000170: fe85 95bf 3af8 f9bf e69b 1e3d dab0 903e
00000180: 391a a23f f211 21be 8821 2cbd ce3c 18bf
00000190: be79 563f 461d 9dbf ca61 21bd d7d0 2dbf
000001a0: 3a91 29c0 7f04 12bf 311a 083f 7c13 103e
000001b0: 7583 2dc0 897d 55bf 6ae6 383f 1288 27bd
000001c0: c0e4 71c0 303a 153f 95be 04bf b863 b63e
000001d0: 0a59 41c0 552f 103f 192d 98bd 2729 c0bd
000001e0: 53e1 1cbf da5b 863d 0b93 89be b256 a43e
000001f0: ec5c c8be 594f 78be a67f 603c 4eb0 a83d

l3.bias f4 [16]
0.051022086 -0.30161953 -0.19622071 0.6495833 0.7113823 0.07208647 0.27737388 -0.2416127
-0.30170062 0.097651124 0.18380655 0.14925574 -0.35837257 -0.22801346 0.20092022 0.28949302
00000000: 89fc 503d e06d 9abe 15ee 48be 174b 263f
00000010: 271d 363f 12a2 933d f303 8e3e 5269 77be
00000020: 8178 9abe 50fd c73d c937 3c3e 7fd6 183e
00000030: 9c7c b7be 5c7c 69be 08be 4d3e 6e38 943e
