data .pth (torch, 6487 bytes, 6 tensors)

l1.weight f4 [8, 74]
0.59732515 0.6265365 -0.45228985 -1.2332797 0.5027764 0.50293565 0.4023525 -0.23261079
-0.68746835 -0.23384655 -0.2838783 0.23638132 -1.0614374 -0.28525093 -1.2291068 0.14141843
0.4777644 -0.017113239 0.22982801 0.32297468 -0.5949858 -0.059641268 -0.233704 1.0039465
0.99265516 0.35100728 -0.2333218 -0.23361155 0.25314215 -0.27119288 0.04640666 -0.69222534
0.4818605 -0.756965 0.45431507 0.54443175 -1.0096856 0.535758 0.060746398 -0.23365004
0.43207464 1.5651757 -0.43201306 -0.1735737 -0.23286867 -0.23324949 -0.46771124 0.58261883
0.43959472 0.53501976 -0.87081844 0.6769281 0.635052 -0.58664805 -0.49575737 -0.84208786
0.042721037 0.44252107 0.5192754 1.4756207 -0.5530818 -0.03015929 0.48113573 -0.17235504
0.5992726 -0.73789454 -1.0216193 0.2624187 1.2804058 0.21640792 -0.10552143 -0.5550537
0.3013287 0.45759717 1.1010312 -0.028030844 0.05278843 0.5728228 -0.041352652 0.13527347
-0.20085339 -0.126523 0.36403444 -0.036236547 0.50784737 -0.42196718 -1.2413689 0.37356904
0.5589964 0.8157887 0.470691 0.28525105 -0.1614225 -0.046782937 0.9561093 -0.053658888
-0.12327151 -0.8949873 -0.9978185 0.18783082 -0.25898686 -0.25902689 0.04906868 0.41490614
0.72387236 -0.83733743 1.2875522 0.6012808 0.020266112 -0.6829336 1.0756261 -0.6512981
0.20704144 -0.2619402 0.17557289 1.0663968 0.28585958 -0.20711716 -0.25990808 -0.0916588
-0.71237135 0.7891819 -0.11819038 0.55200887 0.70226204 -0.8124033 1.0222714 -0.50616556
-0.641235 -0.956953 0.96744484 0.06433592 0.60542953 0.74156576 -0.031461358 0.1773507
-0.24028328 0.4346788 1.2599173 1.0763752 -0.33736098 -0.10273136 -0.7596814 0.17407307
1.4308031 -0.24698967 -0.387706 -0.14092939 -0.5733153 0.5564623 0.2233472 0.87053084
-0.8409023 -0.28550282 -0.5832913 -0.349059 -0.3024837 -0.34933096 0.86099255 0.59261143
1.4167831 0.27380744 0.02728339 -0.7746996 0.9282778 0.89601165 -0.4898191 0.4271865
0.62091887 -0.17319654 -0.34907478 0.7385451 0.736108 0.5047119 -0.23495793 -0.22372025
0.13602197 0.5413603 0.24109696 1.1610429 -0.7973289 -0.53158075 0.13245265 1.3011824
0.9278686 1.3425373 0.1270477 -0.21032935 0.5480962 0.096982926 1.5885975 -0.099095844
-0.23622297 -0.34946543 0.04012489 -0.4987029 0.2784698 -0.3395336 -0.8237291 -1.4056536
-0.5487345 1.2152162 0.41396213 0.9730812 -0.5586132 -0.0867769 -0.4371349 1.3101183
-0.7917056 0.17912504 -0.78633386 0.0788679 -0.5788779 1.0910223 -0.00341515 -0.56860214
0.018361539 -0.097694576 0.1724069 -0.38849553 0.64759624 0.4442263 -0.48821872 0.71882915
0.80724263 0.839479 -0.042481948 0.28780028 0.21822429 -0.24756788 0.3484341 -0.4816636
0.19988015 0.7336742 0.2436211 -0.03599328 0.97809714 -0.58351535 0.744682 0.033927046
0.12958208 0.62229484 1.0468966 0.88341796 -0.2615001 1.2007086 1.2750612 0.37870252
1.355001 1.271966 0.6070729 -0.12869765 -0.27650312 0.25565472 -0.70436484 0.66530406
00000000: 4dea 183f b264 203f 8992 e7be 1cdc 9dbf
00000010: f4b5 003f 64c0 003f 2601 ce3e 8631 6ebe
00000020: edfd 2fbf 7875 6fbe 7f58 91be f20d 723e
00000030: 2edd 87bf 690c 92be 5f53 9dbf fecf 103e
00000040: 899d f43e 1031 8cbc 0958 6b3e f05c a53e
00000050: fd50 18bf 674a 74bd 1a50 6fbe 5281 803f
00000060: a61e 7e3f 3ab7 b33e e9eb 6ebe de37 6fbe
00000070: d99b 813e cbd9 8abe e914 3e3d ae35 31bf
00000080: 6bb6 f63e 75c8 41bf fc9b e83e e15f 0b3f
00000090: 613d 81bf 7027 093f 37d1 783d f541 6fbe
000000a0: e338 dd3e ad57 c83f d130 ddbe 4ebd 31be
000000b0: 2075 6ebe f4d8 6ebe d977 efbe 8226 153f
000000c0: 8f12 e13e 0ef7 083f f5ed 5ebf 294b 2d3f
000000d0: c592 223f 912e 16bf e9d3 fdbe 1293 57bf
000000e0: 41fc 2e3d 1f92 e23e 3cef 043f 24e1 bc3f
000000f0: c596 0dbf 9e10 f7bc 6c57 f63e d77d 30be
00000100: ee69 193f a8e6 3cbf 6cc4 82bf be5b 863e
00000110: 56e4 a33f 0a9a 5d3e 9f1b d8bd 0018 0ebf
00000120: c147 9a3e 2d4a ea3e 97ee 8c3f f1a0 e5bc
00000130: ae38 583d 84a4 123f 6661 29bd 2185 0a3e
00000140: 83ac 4dbe 3f8f 01be b962 ba3e c66c 14bd
00000150: 4902 023f 150c d8be 2de5 9ebf 7144 bf3e
00000160: 631a 0f3f 87d7 503f 69fe f03e 6d0c 923e
00000170: f14b 25be 779f 3fbd 94c3 743f 6cc9 5bbd
00000180: c675 fcbd e31d 65bf 0971 7fbf b956 403e
00000190: ed99 84be 2c9f 84be 3dfc 483d 946e d43e
000001a0: b34f 393f bf5b 56bf 83ce a43f 8aed 193f
000001b0: 1e05 a63c bdd4 2ebf 1eae 893f 79bb 26bf
000001c0: ac02 543e 071d 86be 61c9 333e b17f 883f
000001d0: 305c 923e 8516 54be ac12 85be 9cb7 bbbd
000001e0: f85d 36bf d307 4a3f cc0d f2bd 7450 0d3f
000001f0: 72c7 333f aaf9 4fbf cad9 823f 1194 01bf
00000200: fa27 24bf dffa 74bf 77aa 773f 8dc2 833d
00000210: 6efd 1a3f 41d7 3d3f a0dd 00bd 6c9b 353e
00000220: d20c 76be 388e de3e f844 a13f aac6 893f
00000230: 94ba acbe d264 d2bd 7b7a 42bf 3640 323e
00000240: 8e24 b73f dcea 7cbe 6781 c6be cb4f 10be
00000250: cbc4 12bf 5074 0e3f 21b5 643e 1cdb 5e3f
00000260: 6045 57bf 6d2d 92be 9452 15bf dcb7 b2be
00000270: 25df 9abe 82db b2be 026a 5c3f 62b5 173f
00000280: 2659 b53f 7d30 8c3e 6a81 df3c b752 46bf
00000290: 9da3 6d3f 0561 653f 92c9 fabe 30b8 da3e
000002a0: 8af4 1e3f 6f5a 31be eeb9 b2be 4b11 3d3f
000002b0: 9371 3c3f cd34 013f d098 70be ec16 65be
000002c0: 5849 0b3e 9796 0a3f 1fe2 763e 0e9d 943f
000002d0: bf1d 4cbf ad15 08bf aba1 073e 258d a63f
000002e0: cc88 6d3f 43d8 ab3f cb18 023e 9460 57be
000002f0: 0850 0c3f fc9e c63d 2a57 cb3f c3f2 cabd
00000300: 6fe4 71be 22ed b2be ff59 243d fd55 ffbe
00000310: 9893 8e3e 59d7 adbe e9df 52bf 75ec b3bf
00000320: dd79 0cbf 348c 9b3f d8f2 d33e d91b 793f
00000330: 4601 0fbf 16b8 b1bd 25d0 dfbe f5b1 a73f
00000340: 38ad 4abf 8e6c 373e 2d4d 49bf 7e85 a13d
00000350: 5831 14bf 9ea6 8b3f b6d0 5fbb e98f 11bf
00000360: f06a 963c 1814 c8bd 6f8b 303e e3e8 c6be
00000370: dec8 253f a171 e33e cef7 f9be 3005 383f
00000380: 74a7 4e3f 19e8 563f 8d01 2ebd 8f5a 933e
00000390: 3076 5f3e 6f82 7dbe f465 b23e 9d9c f6be
000003a0: 62ad 4c3e 13d2 3b3f cf77 793e b16d 13bd
000003b0: 9364 7a3f 4361 15bf 7ba3 3e3f 16f7 0a3d
000003c0: 2ab1 043e b74e 1f3f b500 863f ae27 623f
000003d0: 57e3 85be d2b0 993f 3535 a33f 4ce5 c13e
000003e0: ac70 ad3f c8cf a23f 2169 1b3f 51c9 03be
000003f0: d191 8dbe 2de5 823e 4151 34bf 5e51 2a3f

l1.bias f4 [8]
0.23082069 0.25648898 0.3479974 0.9895188 0.5054527 1.1868228 0.20843677 0.3800228
00000000: 425c 6c3e 8652 833e b72c b23e 1b51 7d3f
00000010: 5965 013f cfe9 973f 7370 553e 5992 c23e

l2.weight f4 [8, 8]
0.65485376 0.91626334 0.23574783 -0.4352977 0.7631478 0.12978227 -1.1681424 -0.33863807
0.1721071 0.46189198 -0.20821197 0.8651042 -1.2249833 0.08180638 1.4423563 1.3731519
0.67555803 1.6197017 -1.1122493 0.44013393 1.0362421 1.608806 -0.39303514 0.875422
-0.1694286 -0.21028091 -0.21931416 -0.29185116 0.07490516 0.040496964 -0.24844491 0.026021792
1.3294171 -0.93530244 1.4789662 1.0011505 0.8307387 -1.4335582 1.6529723 -0.16282395
0.5567562 1.4740374 1.4535556 -0.0010450871 1.329383 0.20982417 -0.45935535 -0.5667361
-0.950741 -0.5578591 0.6395316 1.0623182 -0.6860205 1.6690354 -0.3263271 0.18084668
0.0036620842 -0.16650823 1.2476141 1.0862881 -0.5332138 0.93204474 -0.99343264 -1.6717288
00000000: 7fa4 273f 3c90 6a3f e167 713e 57df debe
00000010: a75d 433f a5e5 043e b185 95bf f861 adbe
00000020: d83c 303e 1b7d ec3e 8535 55be 7877 5d3f
00000030: 41cc 9cbf 1a8a a73d 229f b83f 71c3 af3f
00000040: 5ff1 2c3f 6352 cf3f 2f5e 8ebf 3c59 e13e
00000050: 95a3 843f 5bed cd3f e73b c9be a81b 603f
00000060: b17e 2dbe e153 57be e493 60be 846d 95be
00000070: e067 993d 25e0 253d 5868 7ebe a72b d53c
00000080: 572a aa3f fb6f 6fbf c44e bd3f b325 803f
00000090: 4bab 543f d67e b7bf 9994 d33f 52bb 26be
000000a0: 9387 0e3f 42ad bc3f 1c0e ba3f 4efb 88ba
000000b0: 3929 aa3f 26dc 563e a030 ebbe 9e15 11bf
000000c0: c363 73bf dbcf 0ebf 58b8 233f 0bfa 873f
000000d0: 0a9f 2fbf f4a2 d53f 5814 a7be df2f 393e
000000e0: 94ff 6f3b 2281 2abe d2b1 9f3f 7d0b 8b3f
000000f0: b380 08bf 7c9a 6e3f 9a51 7ebf 36fb d5bf

l2.bias f4 [8]
-0.79273224 -0.4299096 0.6518012 -0.05035733 0.34490442 -0.57304573 0.74240756 0.410802
00000000: 80f0 4abf 1c1d dcbe 72dc 263f 7d43 4ebd
00000010: 5097 b03e 20b3 12bf 6c0e 3e3f a454 d23e

l3.weight f4 [16, 8]
-1.0870919 -0.2379108 -1.1210364 -0.32655618 0.8035493 -0.15680727 -0.9523778 -0.23456702
-0.6301931 -0.0028193202 -1.1405928 -0.23804325 0.1307769 -1.7190291 0.52719575 0.50248206
-0.9983093 0.66233814 0.079497315 0.068856396 0.23563005 -3.4989064 -0.4558865 -0.5405318
-3.3169541 -3.1340494 1.3394822 -0.09875192 -1.7309315 -0.43986812 0.81211644 -0.78391725
-1.0847772 -0.87933683 -0.039036896 0.19592014 -2.304224 -2.8875659 1.1277817 1.392953
-0.20804803 0.82213897 0.35088214 -0.2137907 -2.7257514 -0.7006383 0.61909074 -1.1648033
-1.3492738 -1.2251047 -1.9983956 0.036834277 1.0575529 0.5626258 -1.7948618 -1.3021497
-0.24539237 -0.71018 0.14253324 -0.1855773 0.47904482 0.5236155 -2.2566578 -2.2409577
0.65619147 -2.0085726 -0.327973 0.3323439 -2.1199832 0.8179032 0.15273279 0.6473919
-0.7975307 0.8380779 -2.6540337 0.106388204 0.4994165 -0.8378807 -0.2794546 -1.5168593
-2.1159825 -2.3497295 -0.99911785 0.25928774 0.18671258 0.461712 0.58030945 0.4006455
0.39534783 -1.1039766 0.750097 0.13067473 -1.1811805 0.30533782 -0.8625795 -0.52969456
0.58488774 -2.625087 -0.31139213 0.102997415 0.24813683 0.40985927 -1.3142697 0.39124012
-3.0244467 0.18713361 0.5742345 0.27262837 -0.40943113 0.50107014 -0.08839542 -3.7913291
-2.1330483 -0.6135841 -0.1147405 -0.27634317 -1.6352826 0.32053313 0.23165728 0.94628453
-0.2193121 -0.07833167 0.17258048 -0.2755995 -0.19746809 -0.16368003 0.28147888 -0.6586933
00000000: d425 8bbf e49e 73be 1f7e 8fbf 5f32 a7be
00000010: 68b5 4d3f 1692 20be 08cf 73bf 5632 70be
00000020: 5654 21bf 58c4 38bb f2fe 91bf 9cc1 73be
00000030: 61ea 053e 2509 dcbf 4df6 063f aaa2 003f
00000040: 3391 7fbf fe8e 293f 7dcf a23d 9504 8d3d
00000050: 0149 713e 15ee 5fc0 f569 e9be 4b60 0abf
00000060: fa48 54c0 4494 48c0 2774 ab3f 723e cabd
00000070: 2a8f ddbf 6536 e1be dde6 4f3f cdae 48bf
00000080: fbd9 8abf 381c 61bf 27e5 1fbd 4a9f 483e
00000090: 6878 13c0 e1cd 38c0 275b 903f 494c b23f
000000a0: 8b0a 55be b377 523f d3a6 b33e f3eb 5abe
000000b0: b672 2ec0 085d 33bf bb7c 1e3f 4618 95bf
000000c0: 01b5 acbf 3bd0 9cbf 6dcb ffbf 8adf 163d
000000d0: e55d 873f 3f08 103f 08be e5bf d7ac a6bf
000000e0: 2348 7bbe 5bce 35bf 3cf4 113e fa07 3ebe
000000f0: 5d45 f53e aa0b 063f 156d 10c0 da6b 0fc0
00000100: 2afc 273f 748c 00c0 14ec a7be fb28 aa3e
00000110: cead 07c0 1b62 513f fc65 1c3e 7abb 253f
00000120: f92a 4cbf 468c 563f b0db 29c0 0fe2 d93d
00000130: 85b3 ff3e 597f 56bf ac14 8fbe 7228 c2bf
00000140: 426c 07c0 f861 16c0 30c6 7fbf 5dc1 843e
00000150: 9531 3f3e 8465 ec3e 298f 143f 6821 cd3e
00000160: 086b ca3e 1b4f 8dbf 5b06 403f 99cf 053e
00000170: ec30 97bf 3d55 9c3e 03d2 5cbf 109a 07bf
00000180: 34bb 153f 6d01 28c0 ca6e 9fbe 4ff0 d23d
00000190: 9517 7e3e 13d9 d13e fd39 a8bf a050 c83e
000001a0: 8990 41c0 f49f 3f3e 0801 133f f295 8b3e
000001b0: f5a0 d1be 2246 003f a808 b5bd 23a5 72c0
000001c0: dd83 08c0 d913 1dbf 11fd eabd da7c 8dbe
000001d0: f150 d1bf eb1c a43e 9137 6d3e b43f 723f
000001e0: 5a93 60be 5b6c a0bd f0b8 303e 611b 8dbe
000001f0: 1335 4abe bd9b 27be 001e 903e 20a0 28bf

l3.bias f4 [16]
-0.6712782 -0.015318667 0.0698309 0.69248646 0.10122824 -0.04238095 0.18088129 0.3725769
-0.30150744 -0.11283723 0.2592195 0.1721195 -0.28687668 0.04153403 -0.65501004 -0.045402624
00000000: e3d8 2bbf 25fb 7abc 8103 8f3d cb46 313f
00000010: c050 cf3d a697 2dbd f238 393e 66c2 be3e
00000020: 2f5f 9abe 3517 e7bd 6bb8 843e 1840 303e
00000030: 80e1 92be 961f 2a3d bdae 27bf 1af8 39bd
